best_model.pth (torch, 211046 bytes, 6 tensors)

conv1.weight f4 [12, 3, 3, 3]
00000000: 3e10 e93c 444d 02be e62c 40be b8b8 103e
00000010: 3781 ffbc a51d 4d3e e8ec 113d a9c3 a6bc
00000020: 7767 e43d 8cc3 263e 6956 9d3d 7652 97bd
00000030: e2af a03c 7232 c03c a189 0d3e eb66 393e
00000040: b5dd 20be 3590 883c 150e e83d a631 2e3b
00000050: 21e6 063c f89f 643d d890 b53d 48a0 7ebc
00000060: 42e5 babd afb0 563d e590 08be a9d5 313d
00000070: 453d 4d3b 553c 1a3c 485c e7bd 759b 96bc
00000080: d56c 823d d994 86bd efed 2ebe a2b5 7a3d
00000090: 078b f3bd f3d5 e73d 94c0 373e e5c5 e93d
000000a0: 1905 c4bd e536 d4bd 2911 85bc 9fa6 88bd
000000b0: 0c2f 123e cf3b 28be 7175 92bd 7704 03be
000000c0: 4d54 1dbe 1991 30be 29e1 4a3e 90de c03d
000000d0: b046 0a3d 6e6c 1a3e 7b64 0cbe 0c87 013d
000000e0: fde1 a3bc a5ef 233c a2c2 07be d847 4c3d
000000f0: e7ea df3c a37d 663e 31e3 efbd 3a58 29be
00000100: 44fd c7bd 619f 2d3e 97c3 213e 49b6 393e
00000110: d11d 0fbe 97fc 37be 7e38 373e a24a ef3d
00000120: fb77 ba3d aa95 44be d66d eebd d7f6 dcbd
00000130: 2561 6939 1ae5 81bc 6f48 0a3a df1b 2f3e
00000140: 8c19 3cbe 89d5 03be adb5 8bbd 8e6f 4fbe
00000150: dbdb 2d3d 292e 0abe 1ac5 8abd 65bb c43d
00000160: 19b0 d43d 2c6d 0e3e ef09 0e3e ea17 8fbb
00000170: 225c 18bd 7cb0 e13d 9b45 843d 0248 a43a
00000180: eddb da3d 235e 31be fcb8 163e def8 d2bd
00000190: 2d94 103e 4564 00be 0365 0cbe 3840 003e
000001a0: 80cd 14be 4bfe e3bd 106b ae3d 3e11 6bbd
000001b0: 3c0e 82bd 49f7 4bbe 4e36 b1bc 406d a23a
000001c0: 13ac 53bc 59f9 623c 75d2 3ebe 1c3e e63d
000001d0: 6c2f 1dbe c0ee 5e3d 9473 073d 0a2a 14be
000001e0: ebb9 50be dd49 dc3c f0c8 1c3e 026f cdbd
000001f0: bc7b 1ebe 13e4 4ebe c1b9 fb3d 434a 273e
00000200: 9f26 ecbd e7e1 623d 0971 983d b339 5ebe
00000210: 6f9e a7bd 9a1b 7abd 5545 e73d cda8 48be
00000220: 204b d83d 7815 a8bd e4d0 263c faec 11be
00000230: cd92 23be 4bf8 5bbe 01d1 e1bd d4b0 853d
00000240: 9cab 0cbe 45b2 853d ab86 e7bd 29a4 8fb9
00000250: 4394 64bc ec91 20be 99db dc3d 7067 06be
00000260: 97c5 52be cff3 1dbe 08e3 87bd fae8 9fbd
00000270: 5b78 dbbd b37e 09be 9814 153e f982 5dbc
00000280: 104a 2a3d d2dc eebd e93b 973c 2168 10be
00000290: 3e66 033d 0434 4b3e fe8d 443d b3a7 573d
000002a0: 9d1f 633e 9e88 1b3e dbd9 303e 0260 923b
000002b0: 4edc d03d 26ce 4fbe 489c ef3d cb27 0ebe
000002c0: 442e 3ebe 1db9 7abd 3728 ae3d 1e6a 3ebd
000002d0: 1a18 1bbe 53d9 f4bd f062 4fbe e911 84bd
000002e0: 64a0 d6bd 1f25 28be 81ca 4b3e 5d3e 9dbd
000002f0: 2aaf 173e 7de3 693e cc56 4fbd f6c8 ba3d
00000300: 0e7d 543e 0f66 ed3d ed40 ff3d 5e23 053e
00000310: d984 823d 7230 dd3c c41c 9ebd b938 c23d
00000320: c601 373e ca8a b83c 38a4 893d 4ded db3d
00000330: e4f7 813c cc0c 18be 8bd5 a43c 144d 1f3e
00000340: 8132 68bb 9f6a 95bd 1025 83bd 357c 683e
00000350: 6c14 4c3e ac54 04be 8eeb e0bd a6df 0c3e
00000360: 4122 023d 7d92 64bc e82d 023e 73b1 e43c
00000370: 13c9 223e 8597 2a3e 0e54 1cbe d7a4 80bd
00000380: 75b5 42be bd25 77bd 134b fb3d 90b4 163e
00000390: 51c6 71bd 3fe0 a1bd cb2c a13d f01e 94bd
000003a0: 4fd4 b4bd fd90 0ebe 752c 643d 1339 6fbc
000003b0: 4cad cabd 23ef 8ebd 91fb e23d 9a3e 413e
000003c0: 0723 8f3d e3ba 24be d9f4 7f3d 0a59 1abe
000003d0: 25a9 bebd 528a 013e 951b 58be a292 8dbd
000003e0: 0a90 18be 0c97 c4bd a33c f4bd 1023 ea3d
000003f0: ce1a a43d d440 37be 9946 ca3d 7f4b 113e
0.028450128 -0.12724787 -0.18767127 0.14132965 -0.031189544 0.2003084 0.035626322 -0.02035697
0.11152547 0.16285533 0.07682497 -0.07388775 0.019615117 0.023461554 0.13822033 0.18105666
-0.15709575 0.016670326 0.11330811 0.0026579886 0.008233578 0.05581662 0.088655174 -0.015541144
-0.09125759 0.052414592 -0.13336523 0.043416653 0.0031317037 0.009413798 -0.11296898 -0.018384675
0.06368414 -0.06571359 -0.17082952 0.061208375 -0.11891752 0.113201044 0.17944556 0.114146985
-0.09571285 -0.10362033 -0.016243534 -0.066724055 0.1427576 -0.16429065 -0.071513064 -0.12794672
-0.1536419 -0.1724285 0.19812454 0.094174504 0.03375882 0.15080425 -0.13710205 0.03162293
-0.02000522 0.010005866 -0.1325784 0.049873203 0.02733369 0.22508864 -0.11713255 -0.16537562
-0.097651035 0.1695533 0.15797268 0.18135943 -0.13976218 -0.17967449 0.17892644 0.11684157
0.09104916 -0.19197717 -0.11642043 -0.107892685 0.00022256801 -0.015856314 0.00052750757 0.17100476
-0.1836912 -0.12874426 -0.06821761 -0.20257398 0.042446 -0.13494171 -0.067758754 0.09606055
0.103851505 0.13908833 0.13870977 -0.0043668645 -0.03719724 0.1101999 0.06458589 0.0012533667
0.10686479 -0.17321067 0.14719003 -0.10301374 0.14119025 -0.1253825 -0.13710408 0.12524498
-0.14531517 -0.11132487 0.08516514 -0.05738949 -0.06350371 -0.1991855 -0.02163234 0.0012392178
-0.012919444 0.013853394 -0.1863497 0.11242315 -0.15350121 0.05442691 0.03306921 -0.14469162
-0.20383422 0.02689069 0.15311027 -0.10030939 -0.15476888 -0.20204191 0.12291289 0.16336922
-0.11530804 0.05539122 0.07443435 -0.21701698 -0.08184516 -0.06106148 0.11292521 -0.19595642
0.10561204 -0.0820722 0.010181639 -0.14250556 -0.15973969 -0.21481435 -0.110261925 0.06527868
-0.13737339 0.06528143 -0.11304983 -0.00027397394 -0.013951364 -0.15680665 0.107840724 -0.13125396
-0.20583187 -0.15425037 -0.066351 -0.07808109 -0.10716315 -0.13427238 0.14558637 -0.013519996
0.041574538 -0.11663212 0.018461185 -0.14102222 0.032079928 0.19844061 0.047986977 0.052650165
0.22180028 0.15188834 0.17270605 0.0044670114 0.1019827 -0.20293483 0.1169973 -0.13882367
-0.18572336 -0.061211694 0.08503764 -0.04648792 -0.15145913 -0.11955514 -0.20252585 -0.064487286
-0.10479811 -0.1642041 0.19901468 -0.076779105 0.14812914 0.22840686 -0.050619885 0.091203615
0.2075083 0.11591732 0.124635555 0.13001773 0.06372995 0.02700064 -0.0772033 0.09483475
0.1787177 0.022527117 0.06720775 0.10738621 0.015865274 -0.14848632 0.020121356 0.15556747
-0.0035430493 -0.07295727 -0.064035535 0.22703631 0.19929665 -0.12922925 -0.109824285 0.1375719
0.03177095 -0.013950941 0.12712824 0.027916646 0.15897016 0.16659363 -0.1526644 -0.06281441
-0.19014533 -0.060338724 0.12270179 0.14717317 -0.05902702 -0.079041 0.07869872 -0.07232463
-0.08829557 -0.13922496 0.05570646 -0.01460101 -0.09896335 -0.069792055 0.11083139 0.18871537
0.06989103 -0.16086917 0.062489364 -0.15073028 -0.093096055 0.12650421 -0.21104272 -0.069127336
-0.14898697 -0.095991224 -0.11925628 0.11432469 0.08012925 -0.17895824 0.09876747 0.14188956

conv1.bias f4 [12]
00000000: 4850 10be 9fa6 d1bd 6f81 03be ffed 1b3e
00000010: 560e 13be 5eb6 fcbc de39 aa3d ffe4 fc3d
00000020: 7a6d 2dbd 1989 e83c b286 a9bc 114d 2c3e
-0.14093125 -0.102368586 -0.12842344 0.15227507 -0.14360937 -0.030848678 0.083118185 0.12348365
-0.042340733 0.028385686 -0.02069411 0.16826274

conv2.weight f4 [24, 12, 3, 3]
00000000: 26f1 8c3c f07a 0bbe 7087 7f3b 1634 60bd
00000010: 32ab 8cbd db05 0dbe 953a e2bb c12f dfbd
00000020: 584a ccbd e754 57bd aee6 233d 283d 8cbd
00000030: fbca 8ebd 3edb c8bd b15f 9e3d 8743 95bd
00000040: d283 1d3d 83fa 0c3e e863 1cbe 8aa2 4fbc
00000050: 2704 6bbd 0cc8 1e3d d8c7 c33c 6f99 243d
00000060: df92 88bd 85ed 643d 4e86 8fbd b091 a8bd
00000070: bf6d a43d ced0 8ebc daf5 a73d 0fd6 09bc
00000080: 1b18 b43d b3e2 8f3d 7784 093d 1366 933c
00000090: 32fb d7bd 2b22 083c de86 c33c c22e c0bd
000000a0: bd25 af3d 2990 9b3d b701 ad3d 3ccb 8dbd
000000b0: 1b74 9cbd 28d7 63bc 333d 0a3d 3737 9abd
000000c0: 6bb6 4fbd 579a b13d b6d1 643d 06e0 08bc
000000d0: 18f6 d73d b06c b53d 5a2e 2cbd 5e2d 1dba
000000e0: 27f6 c8bd c267 983c 7f4e b4bd d293 b4bd
000000f0: ba0f cb3c a3ea 3fbc edb2 4a3d ba44 2a3d
00000100: 6ebb 8ebc 3c2f be3b 5c2a cbbd 0c4b 05bd
00000110: b8a6 ff3c ff0b b0bd 905b a7bd 8633 5c3d
00000120: 9c26 a73b 2726 6e3d 52ed 85bd 0d25 123c
00000130: efd5 66bc 601f 85bd ffea 673c b9e3 673d
00000140: da28 de3c ef18 ad3d dfff a8bd 24d0 1ebd
00000150: cc5e d13c b28d a53d 48a3 9bbc eccd 21bd
00000160: 2524 2bbd ff51 d33d 375a 5c3d 4560 1f3d
00000170: 3023 e93c cea8 c3bd e50c 193c 31d9 733d
00000180: 07dc 003d e40f cb3d 8fe9 983c 9c12 7cbd
00000190: 580d 37ba 290f 1f3d 9b35 d53c 1f15 4bbc
000001a0: b0db 8a3d 1fa2 45bd a702 5c3d 79db f53c
000001b0: c20a 3d3d 414a f6bd ad80 da3c 6547 c7bd
000001c0: 9072 a2bd 77bc 0bbe e434 ccbc 8ae4 dabd
000001d0: 658e d4bc 3c7d 4e3b 1284 56ba 8b6c 8c3d
000001e0: 8b5c cb3b 5f88 093b e05d f63a 91cc a5bd
000001f0: c186 18bd 351a a23d c48a 96bd b7c4 b2bd
00000200: 885b 613d e263 dbbc 22b4 a4bd 52f5 b93b
00000210: f102 823d cd53 96bd aca3 dbbb 4ef6 86bd
00000220: 4cf2 a93d c0d7 d53d bb20 c03d 2489 a73d
00000230: a414 213d 299e 08bd c3a5 c53d e02a bbbd
00000240: 9b44 04bd fb87 5f3c 983a fbbc 8b8c b63c
00000250: 8e69 dbbd bf2f c0bc 3c18 a23d 63a6 023d
00000260: 0645 843a 5ab9 5c3d 03e0 b13c 1a33 82bd
00000270: eefa 023d 930d faba 957e 053d a43b a2bd
00000280: 6bb7 aabd f34c 393d 0826 b03c ace2 f43d
00000290: 1049 f33d 543e 92bc f66c 5f3c 0f6a e33d
000002a0: d99b 50bd 448d 44bd baba bebd acd4 9fbd
000002b0: 1a24 ccbd b5ef 663c 8899 92bd 7a22 71bd
000002c0: 9487 463d 5153 bc3c 9f5d 1fbd a5b5 a8bb
000002d0: ab5c 43bc 9071 9fbd 9cae 8c3c 4406 91bd
000002e0: e95d f53d 0d14 f43c 73ff fc3d 2a73 023e
000002f0: 9dc3 1f3d aa5c 943d 5907 633d 80d1 0b3d
00000300: 1fa3 cc3c 90eb 9d3d d2f4 42bd be18 d9bd
00000310: b0fd 353d 85bf 16bc dec3 2abc 0db9 fb3c
00000320: 08a5 5fbd 356e a1bd 6e58 b7bd 5fb1 82bd
00000330: a88b ffbc 76ee 5ebd 45fd cfbc 9f11 e83d
00000340: 97d8 623c fd56 17bd 4ff6 af3d 651f e63d
00000350: 944b 943d de8b 663d 0342 d33d 4261 25bd
00000360: a268 b73d e433 ec3c 1120 283d c63a 303c
00000370: 3371 033e 4903 123e 9b80 89bc 29c0 443e
00000380: 97ca 4d3e 73d7 573d b471 aebc ebcb 1fbd
00000390: ea62 a83d b98b 903d 9bb1 54bb 5f02 d03d
000003a0: b75a 3b3d d631 93ba a500 f03d df6e 02bc
000003b0: eb3c d0bc 8d82 3abc 9a1a dc3d 7b2e ba3d
000003c0: 85e2 8fbd 757b e33d 9810 86bd ad4f 9dbb
000003d0: 9c88 ffbd 92f6 5bbd e2c9 c7bd 2131 d0bd
000003e0: f9c2 c8bb 7512 5ebd 4756 09be b2c3 eebd
000003f0: 119b 06bd 3c5a 113c bfb8 9bbd 0383 8d3d
0.017204832 -0.13621116 0.003899064 -0.054737173 -0.068685904 -0.13771765 -0.006903956 -0.1089778
-0.099751174 -0.052571204 0.040014915 -0.06847602 -0.06972309 -0.09807442 0.077330954 -0.072882704
0.03845579 0.13767438 -0.15272486 -0.01267303 -0.057377007 0.038765 0.023899004 0.04018539
-0.066686384 0.05589058 -0.070080385 -0.08230913 0.08028745 -0.01743355 0.08201189 -0.008412852
0.0879366 0.07025661 0.033573594 0.017993009 -0.105459586 0.0083089275 0.02386802 -0.09383918
0.0855212 0.07595856 0.08447593 -0.069235295 -0.07639333 -0.013906278 0.03374977 -0.07530063
-0.050711077 0.08672016 0.05586406 -0.008354193 0.105449855 0.08858621 -0.04203639 -0.0005995835
-0.09812575 0.018604163 -0.088040344 -0.08817257 0.024787772 -0.011713657 0.049487043 0.04156945
-0.017423358 0.0058039706 -0.09920189 -0.032542273 0.031207427 -0.08596038 -0.08171761 0.053760074
0.005101038 0.058141854 -0.06539406 0.008919966 -0.014089092 -0.06500125 0.0141551485 0.056613658
0.027119089 0.08452021 -0.082519285 -0.038772717 0.025557898 0.08083667 -0.018998757 -0.039503023
-0.041782517 0.10318374 0.053796973 0.03891017 0.028459162 -0.09553681 0.009341453 0.0595333
0.031459834 0.0991514 0.018666057 -0.061541185 -0.00069828844 0.038832817 0.026026538 -0.012395172
0.06780183 -0.048250314 0.053713467 0.03001188 0.046152838 -0.120258816 0.026672686 -0.09730414
-0.07932007 -0.13646112 -0.024927564 -0.106881216 -0.025946805 0.003150775 -0.0008183132 0.068566404
0.0062061003 0.0020985825 0.0018796287 -0.080956586 -0.037237886 0.07915155 -0.07350686 -0.08728927
0.05501893 -0.026781026 -0.0804217 0.0056749964 0.06348217 -0.073402025 -0.006702861 -0.06589948
0.082981676 0.10441542 0.09381243 0.081804544 0.039326325 -0.03335396 0.09650757 -0.09139037
-0.03229199 0.01364326 -0.030667588 0.022283813 -0.10713492 -0.023460267 0.079147786 0.03189696
0.0010091371 0.053887703 0.021713262 -0.06357403 0.031977586 -0.0019077532 0.03259142 -0.07921532
-0.083357655 0.0452394 0.02150251 0.11957297 0.1187917 -0.017851986 0.013636818 0.111042134
-0.050929878 -0.047986284 -0.09312959 -0.07804236 -0.09967823 0.014095237 -0.0715819 -0.05887077
0.04846914 0.022988947 -0.038907643 -0.005148607 -0.011923949 -0.07785332 0.017173104 -0.07081273
0.119808026 0.029794717 0.123534106 0.12739244 0.03900491 0.07244237 0.05542693 0.03413534
0.024980126 0.077109456 -0.04759676 -0.10600422 0.04443139 -0.009200935 -0.010422675 0.030727888
-0.054600745 -0.078823484 -0.089524135 -0.06381487 -0.031194523 -0.054426633 -0.025389323 0.11331486
0.013845584 -0.036948193 0.085919015 0.11236457 0.07240978 0.05628573 0.10315325 -0.040375955
0.08955504 0.028833337 0.041046206 0.0107562 0.12836151 0.14259066 -0.016784957 0.19213928
0.20096813 0.052695703 -0.021294452 -0.03901283 0.08221991 0.070579 -0.0032454494 0.10156702
0.04574081 -0.0011230062 0.11718873 -0.007961004 -0.025419673 -0.011383665 0.10747261 0.09090897
-0.07025627 0.11107532 -0.06546134 -0.004800758 -0.12477228 -0.053701945 -0.09755303 -0.101656206
-0.006126758 -0.05421682 -0.13411818 -0.1165842 -0.032862727 0.008871611 -0.07603597 0.06909754

conv2.bias f4 [24]
00000000: 9d35 8d3d c608 d93d d556 08bd f7a7 2f3c
00000010: 7931 163d c52a 1fbd 3afd 98bc 3e47 acbc
00000020: b7be 393d 8736 71bd 8d7b 35bd d7ca 973d
00000030: fdec 8abd efdb e13d 111d 2bbd a351 e639
00000040: 9d25 c73c 80d0 dc3b e95b a93d 91a6 71bc
00000050: 244e 25bd 4237 223d cea5 86bd f752 c53d
0.068949915 0.105973765 -0.033285934 0.010721198 0.036668275 -0.038859148 -0.018675435 -0.021030065
0.045347895 -0.058889892 -0.04430728 0.074117355 -0.06783483 0.11028277 -0.041775767 0.00043929843
0.024309928 0.0067387223 0.082694836 -0.014749185 -0.040357724 0.03960348 -0.065745935 0.09634965

fc.weight f4 [2, 24576]
00000000: 9968 7a38 703a 3d3a 479e 4a3c 67d0 0d3c
00000010: aae6 cd3a 387a 87bb fdf5 aa3b e65c 033b
00000020: 55df 353c d6ad b43b 6f3e f8ba af40 163c
00000030: db5f b6bb fbe3 c9bb 121b c3bc 3c70 7cbc
00000040: 7622 e5bb e946 6cba 6a08 cb3b 6747 833c
00000050: 4a36 203b d14c cc3a eb40 693a 18b2 cb3b
00000060: 2547 d13b 80ef 553b 65bf e73b 0b3c 413a
00000070: 854e ea3b 08dc cb3b 9bc4 cbbb bfb1 3d3c
00000080: 346b 7aba b027 ea3b 79a1 01bb 1a4c fabb
00000090: 326f 05bb c2e0 ffbb b545 c8bb b817 633c
000000a0: 89dd fd3b a8e4 093b 6e71 2f3c 5333 babb
000000b0: 76e4 b0bb d68e 1bbc 6799 bcbc c5e6 a2bc
000000c0: 5396 c0bc 659b ebbc 401a feba 7166 d1ba
000000d0: 8401 c4bb c7c3 743b 70bf 543b f69c 4f3c
000000e0: e590 9cbb 8974 99bb 90a2 f5ba d48a 21bb
000000f0: 282e 273c c8ac 51ba 44db 78bb eb44 d03b
00000100: d6e1 18bc a947 8bbb 78e6 0c3c e41a 44bb
00000110: e1a2 79bc f2d2 c7bb d268 86bb 01d2 c03b
00000120: 5aa0 173c a0c8 80bb f4d8 00bb 3052 8c3b
00000130: 7364 0cbc 26fa 7dbc c986 c6bc 80df 093b
00000140: 820b 043b c931 82bc 57fb a5bc c434 7637
00000150: c073 5a3b c49c 1a3a 937d 213c 4149 943c
00000160: 3107 03bb 44b5 593a e8be 0dbc 382c 12bc
00000170: 7f77 513b 6f0e 57bb 9477 6eba 61ab 863b
00000180: 17d4 d63b 2297 913b 9328 783b 62ab 71bb
00000190: 169e 86bc 9da6 00bc 49c7 fcbb 9ed8 f13b
000001a0: cd32 53bb c1cf 3bbb 8508 b13b a584 20b9
000001b0: 19c9 37bc a330 a0bb cb8e 30bc ee99 68bb
000001c0: a468 393b d464 c9bb aab4 5dbc d7d7 49bb
000001d0: f9af ccbb 791a a3bc c507 eabb e7cb 78bb
000001e0: 7da6 0a3b d760 35bc 036c 9fbc d833 0abc
000001f0: 2ee3 9dba 7976 5aba 6c66 8ebb b8b7 2aba
00000200: 01b5 c0bb d372 0c3c ec76 b23a 9c6a 8e3a
00000210: 249f 95bb ef56 6ebc 233c 35bc f33a fbbb
00000220: 5fe1 253a a7f7 dfba ac41 51bb 9aac 83bc
00000230: 1584 c9bc 63a0 a1bc 2140 84bc 872e 8cbb
00000240: 6bc3 b73b 7985 21bc 3711 00bd b04d 9abc
00000250: 336f 10bc 439b 81bc ced4 d43b 7930 2cbb
00000260: 741d a7bb 69b9 5bbc dec9 f1bb 6565 26bc
00000270: bee7 2dbc a7ab 643b 9475 823b e9df 0abb
00000280: 91f0 26ba 4ea5 c63b 24ce dc3a 46cd 29bc
00000290: 6ed9 0fbc 0706 12bc af5c 62bb bb01 12bc
000002a0: 6084 4b3c bb39 e2ba 85be 65bc 9544 03bd
000002b0: b0fc 93bc f991 1fbc 4bb6 acbc 9a8b b43b
000002c0: 2470 293c 7ef3 82bc 445c 88bc d70e d1bc
000002d0: 9e64 a7bc 14d6 8abc 3f93 b6bc e31f ee3b
000002e0: d931 53bc e3c7 fdbb 00b4 cf3a 41d5 1b3a
000002f0: 2164 7cbb bcca e33a 483f b63b 3c2c 863a
00000300: 7976 1a3b 06fc ec3a aca2 a13b c9a7 923b
00000310: fab4 b3ba d462 333c bc00 aa3b d4c4 ea3b
00000320: 2af8 eebb 36ca a2bc 7c27 3ebc c5e5 59bc
00000330: eff5 6d38 bf49 693a 39e9 63ba 67cf 373c
00000340: aff1 6d3b 8615 fb3a e8c7 1abb b4d5 473b
00000350: 477b 60bc 1142 22bc 31b6 dfbb 03b3 9fba
00000360: 202d 00bc 117a 1bbb 9d7e ad3b 84de 023c
00000370: cf22 00bc 6871 f038 5170 5ebb c16a 49ba
00000380: 1b0a 533b ab43 da39 0cf4 62bc 277b e936
00000390: 2b60 42bb f816 30bb 4a46 0b3c 9480 493c
000003a0: db97 82bb cf1f 77bb b1f1 82bc cc0d 05bc
000003b0: a032 bc3b 8792 2f3c fc91 d93a 34d6 a13b
000003c0: f9aa 203c 8c71 fe3b def5 3bb9 6c78 6bbb
000003d0: 8ad7 88bc 193b b5bc a77f 94bb 6c5e 28bc
000003e0: c978 9838 e8d9 6b3b 0aff 80bb a8c0 333b
000003f0: 0ce2 043c 6f92 babb cf01 2b3c 891e 3b3c
5.970206e-05 0.00072184857 0.012366838 0.008655644 0.0015709002 -0.0041344427 0.0052173124 0.0020044385
0.01110061 0.005513887 -0.0018939505 0.009170695 -0.005565626 -0.0061612106 -0.023816619 -0.015407618
-0.0069926335 -0.0009013252 0.0061960714 0.016025258 0.0024446421 0.0015586858 0.0008897918 0.006216299
0.006386655 0.0032643974 0.0070723766 0.0007371313 0.0071504735 0.006221298 -0.0062185056 0.0115780225
-0.00095527177 0.0071458444 -0.0019780083 -0.0076384665 -0.0020360467 -0.0078087756 -0.0061118254 0.013860635
0.0077473563 0.002104083 0.010708196 -0.005682388 -0.0053983284 -0.009494504 -0.023022367 -0.01988543
-0.02350918 -0.028760621 -0.0019386485 -0.0015975964 -0.005981626 0.0037348138 0.0032462738 0.0126717
-0.004778015 -0.0046830815 -0.0018740464 -0.0024649398 0.010203876 -0.00079984637 -0.003797249 0.006355872
-0.009331187 -0.004250486 0.00859987 -0.0029923255 -0.015236587 -0.0060981447 -0.004101851 0.0058844094
0.009254539 -0.0039301664 -0.0019660564 0.0042822585 -0.008568871 -0.015501535 -0.024234192 0.0021037757
0.002014846 -0.01589288 -0.02026145 1.4675028e-05 0.0033333153 0.00058979937 0.009856599 0.018101336
-0.00199933 0.0008304904 -0.008651473 -0.008921675 0.0031962094 -0.0032815 -0.0009096798 0.0041097854
0.006556045 0.0044430653 0.003786598 -0.0036875834 -0.016432803 -0.007852224 -0.0077141863 0.007380559
-0.0032226325 -0.0028657767 0.005402627 -0.00015308203 -0.011217379 -0.0048886104 -0.010776232 -0.003549214
0.002829113 -0.006146053 -0.013531843 -0.0030798817 -0.0062465635 -0.019910084 -0.0071420395 -0.0037963332
0.0021156364 -0.011070452 -0.019460684 -0.008435212 -0.0012045854 -0.0008333694 -0.0043457057 -0.00065123616
-0.0058809523 0.008572298 0.0013615764 0.0010865512 -0.00456609 -0.014547094 -0.011061701 -0.0076669394
0.00063278334 -0.0017087356 -0.0031930013 -0.016073514 -0.024599114 -0.019729799 -0.01614386 -0.0042780074
0.0056080124 -0.0098584825 -0.031266417 -0.018835872 -0.008815574 -0.015821105 0.006495095 -0.002627401
-0.0050999466 -0.013410904 -0.007378801 -0.01015601 -0.010614334 0.0034892352 0.0039813016 -0.002119059
-0.00063682446 0.0060621863 0.0016846103 -0.010363882 -0.008779867 -0.00891257 -0.0034540107 -0.008911545
0.012421697 -0.0017259637 -0.014022474 -0.032047827 -0.018064827 -0.009739392 -0.021083018 0.005509806
0.010341678 -0.015985247 -0.016645558 -0.025519772 -0.02043372 -0.016947784 -0.02228701 0.007266985
-0.012890303 -0.0077447756 0.0015846491 0.0005944558 -0.003851183 0.0017379145 0.005561743 0.0010236572
0.002356915 0.001808048 0.004932722 0.004475568 -0.0013710551 0.010948855 0.005188076 0.007164577
-0.007292767 -0.019871812 -0.0116060935 -0.01329941 5.6734247e-05 0.00088992337 -0.00086941157 0.011218882
0.0036307385 0.0019156195 -0.0023617689 0.0030492367 -0.013701267 -0.009903447 -0.006827139 -0.0012184087
-0.007823259 -0.002372388 0.0052946345 0.007987622 -0.007820799 0.00011465215 -0.0033941458 -0.0007683449
0.0032202068 0.00041630617 -0.013852131 6.958278e-06 -0.0029659371 -0.002686916 0.008500645 0.012298722
-0.0039853877 -0.0037708168 -0.015984388 -0.008120965 0.0057433397 0.010716087 0.0016599293 0.004938865
0.009806388 0.0077650007 -0.00017925302 -0.0035929931 -0.01670434 -0.022122907 -0.004531819 -0.010276418
7.270423e-05 0.0035988037 -0.003936653 0.0027428064 0.008110534 -0.005693726 0.010437443 0.011420854

fc.bias f4 [2]
00000000: 9302 4cbc b6f7 9d3c
-0.012451786 0.019283157
